hmf_emulator/data_files/rotated_MF_parameters.npy (npy, 3968 bytes, 1 tensors)

array f8 [40, 6, 2]
000000 2d e8 e9 17 6f f6 e0 bf 2f c1 dd f7 ce 72 ba 3f
       -0.5300822703422959 0.10331433822080237
000010 fc 98 d6 fd 30 d2 d4 bf fb 0a bd 21 f3 26 96 3f
       -0.32532906330960976 0.021632956442100042
000020 80 f0 40 23 07 12 f1 bf 3f 91 93 ce 4d 11 8b 3f
       -1.0669013383003687 0.013216598383629317
000030 c9 06 fa 9e c5 90 e0 3f 52 a4 2a f7 c6 49 75 3f
       0.5176723580372818 0.005197312554323723
000040 ca ce e3 2e 5a b6 de bf 10 0b d8 d7 57 34 4a 3f
       -0.4798798997792174 0.0007996968194564375
000050 35 b4 04 c8 58 52 f1 bf f3 79 a2 0f a9 b8 58 3f
       -1.0826041997163547 0.0015088702189484076
000060 a2 df ff c3 b2 a6 be 3f b5 aa fe 20 4d 0d b8 3f
       0.11973111424583618 0.09395296149765893
000070 f4 f2 e4 59 3f e0 cd bf c5 98 67 59 3f 7e 94 3f
       -0.23340598954555214 0.02001284583266096
000080 a5 ec 6e 67 0d 00 f0 bf bd b6 1b e8 f7 62 89 3f
       -1.0000127830851764 0.012395798464662428
000090 90 a1 4e 1f df 07 e6 3f 2f bf 3d a0 26 ec 78 3f
       0.6884608851878955 0.006084586031519553
0000a0 f2 36 fd 4a 0f c3 de bf 69 1c bb 0a cc 33 4a 3f
       -0.4806555015864965 0.0007996317194390981
0000b0 cd 8b f2 a5 c9 31 ef bf b3 0f 16 ea a0 02 59 3f
       -0.9748275986825036 0.0015265056066206927
0000c0 84 40 76 90 a5 f7 f3 bf 0d 27 95 3c 3e 20 b8 3f
       -1.2479606287998033 0.09424199084346814
0000d0 d9 fc b6 f2 08 e3 dc bf 34 9e bc 01 fe 8f 96 3f
       -0.4513571138631512 0.022033661705022037
0000e0 61 18 6b 69 37 df f1 bf 11 8b 34 15 d6 37 91 3f
       -1.1169962041763244 0.016814560932412684
0000f0 d4 bb e6 22 2b 5c db 3f b3 2a cb 67 14 a9 7b 3f
       0.42750051887827323 0.006753043850674589
000100 ce fc 8e 88 85 9a de bf 71 6e dd 9e a1 45 4c 3f
       -0.4781812509135762 0.000862792888919951
000110 ba 6f 2f b5 69 d1 f2 bf dd af 24 69 d0 09 5e 3f
       -1.1761262013960576 0.001833394552316562
000120 e1 17 f3 b0 0a f9 ee bf 24 de b5 04 d9 00 c0 3f
       -0.9679006057783647 0.12502587060929315
000130 eb 5b 6c 97 93 86 d8 bf 79 b1 7d a7 f6 51 97 3f
       -0.38321389949254464 0.02277360341342802
000140 6c 95 4f 9d 50 fe f1 bf 47 c6 b2 f8 90 12 91 3f
       -1.1245885987239843 0.01667238729414169
000150 5c a0 44 d8 37 f0 de 3f c6 1d 09 f4 9f 1c 7a 3f
       0.4834117519371881 0.006374955003202348
000160 aa 05 fc c1 a7 3c de bf 89 fa 41 44 16 2d 53 3f
       -0.472452105939818 0.0011704175422263838
000170 30 04 38 6e 71 06 f2 bf c1 a7 a7 09 ed 38 61 3f
       -1.126573019544832 0.002102339710508411
000180 a9 6b 7c dc 10 13 ee bf ad 6f 45 60 a4 a8 b5 3f
       -0.9398273760192427 0.08460452413913684
000190 31 31 6c fb dd 2c dd bf ea 6c 91 6d dd 1c 96 3f
       -0.45586347153654844 0.021594486057762298
0001a0 e0 22 27 3c de 58 f1 bf bd 95 8a b3 68 5f 8f 3f
       -1.0841963147851672 0.0153186969558402
0001b0 fb 0f 85 8c 20 db de 3f 0d ea 4a 7b a6 73 76 3f
       0.48212445948252 0.005481386488720219
0001c0 3e 4c ca aa 84 ba de bf f7 fb 8a de 8b 5a 4c 3f
       -0.4801341693757343 0.0008652861552816961
0001d0 b7 5f 92 c3 a6 f1 f1 bf 15 06 d8 b2 06 70 5b 3f
       -1.121496929123152 0.0016746583381749326
0001e0 1e a4 e7 46 ed bd 90 3f 0a d4 ee f0 31 92 b8 3f
       0.016349513485611415 0.09598075992728652
0001f0 38 99 a4 ed 56 09 ba bf 94 99 e0 de 0b 70 95 3f
       -0.1017050104315772 0.020935235479691963
000200 66 58 a9 8c d8 bb ee bf ee 49 6f a4 fe 54 87 3f
       -0.960430407266142 0.011392583268308134
000210 26 2d d9 18 2b 50 e7 3f eb 87 7e 6b fc 41 74 3f
       0.7285361752814523 0.004945741667968999
000220 27 cb cf a3 76 35 de bf ee 7c ab 34 e3 f5 48 3f
       -0.47201314923511223 0.0007617339518581048
000230 a2 81 5f f6 54 e9 ed bf d7 14 4a f0 6b ae 56 3f
       -0.9347328960393961 0.0013843587959468295
000240 31 88 82 8f 06 91 f1 bf 33 8c 20 3c 2e 66 b7 3f
       -1.0979066472869017 0.0914029022974752
000250 0c a8 e7 54 bd d0 db bf da 73 fa 97 07 52 95 3f
       -0.43461545268530766 0.02082073083021272
000260 90 12 e4 af 9a 4e f1 bf ca 7f c7 56 91 b3 90 3f
       -1.0816904898394206 0.016309996530139682
000270 6c f5 97 46 72 a9 dc 3f 30 67 5b 5a d8 98 79 3f
       0.44784218686967026 0.006249280098666252
000280 79 73 b3 d2 55 ae de bf 9b 63 5f 72 4a fd 4b 3f
       -0.4793905789973035 0.0008541692266091806
000290 54 59 87 1d 7b 6b f2 bf cb d2 45 ee 68 a3 5c 3f
       -1.151240458818923 0.0017479443277725211
0002a0 d3 9a b3 f5 a9 86 e6 bf 43 72 0b 1b bf 35 be 3f
       -0.7039384650095947 0.11800760660430236
0002b0 bd d9 42 b9 f4 fc cd bf ee 3d 35 bb f1 c8 96 3f
       -0.23428210302308897 0.022250916529911118
0002c0 54 55 73 cd 14 30 ef bf 1a 02 51 ae 8c 50 8d 3f
       -0.97461929442458 0.014313792295184636
0002d0 56 fd 08 44 bf 8e e1 3f 59 54 5c 44 7e 34 7d 3f
       0.5486751869974948 0.00713013957080929
0002e0 15 50 53 91 7b 72 de bf 27 57 65 98 6e ae 4c 3f
       -0.4757374686425931 0.0008752861038298963
0002f0 18 e6 a0 5e d6 db f0 bf 0f 21 dd 28 ae 77 5c 3f
       -1.0536712356973847 0.0017375183847026553
000300 8b fa ad 98 0f 4b bc 3f 6b 3b fc 3c 04 22 bd 3f
       0.11052033879784966 0.11380030144594648
000310 f3 3c ab 2e 27 ca bb bf 73 e4 82 f1 06 e7 96 3f
       -0.10855336083772098 0.0223656735331343
000320 3b f2 4c 76 df 92 ee bf de f7 4e 14 04 31 88 3f
       -0.9554288206632643 0.011812240476384458
000330 45 b5 86 7c 1c 65 e5 3f ff 0f e6 71 a2 fb 74 3f
       0.6685926849510585 0.005122789907890279
000340 1f f4 64 18 cc 48 de bf 04 57 94 20 2a 80 4a 3f
       -0.47319319135914556 0.0008087354373482463
000350 56 bd c3 64 9f e2 ee bf bb 7c eb 76 22 dd 59 3f
       -0.9651638954218622 0.0015786015098269563
000360 87 a6 e0 a3 9a f5 cf bf 6e 06 8c 74 67 02 c1 3f
       -0.24968274118264253 0.13288586798448726
000370 d2 8a e8 d0 6f 09 d2 bf 96 3b 57 1e 92 7f 98 3f
       -0.28182597542960963 0.023924143888332937
000380 dd 61 b4 a3 05 5b f0 bf 85 d7 a6 b2 6f 86 8d 3f
       -1.0222221750938083 0.01441657318069268
000390 5c 0b c6 53 4c ea e0 3f 90 4c 4c d2 cc 10 7a 3f
       0.5286008487895333 0.006363678058522684
0003a0 ee e9 96 4e f3 f8 dd bf 07 6d 0d 76 e0 50 4c 3f
       -0.46831972765690366 0.0008641334535285657
0003b0 cb 6e 85 59 80 f3 f0 bf dc 42 84 e4 df b1 5d 3f
       -1.0594485756800391 0.001812428136023828
0003c0 70 dc 47 93 1f 4b c9 bf cb b3 41 ae ea fe bb 3f
       -0.19760508243027486 0.10935847048104035
0003d0 72 54 d8 18 8e ff b0 bf 36 68 ee 88 05 4d 97 3f
       -0.06639946085518192 0.02275475166570847
0003e0 8e c8 b9 36 a0 2e ed bf b0 20 dd 6d d3 ac 89 3f
       -0.9119416302549028 0.012536670484806528
0003f0 57 6d f1 e8 64 f3 e5 3f 1a 04 66 d8 f6 27 76 3f
       0.6859612035436083 0.005409206618765894
000400 bb 36 a0 4e 41 23 de bf d9 ce e5 ca 44 64 4a 3f
       -0.4709018009024068 0.0008054099942413586
000410 b8 76 3a f8 69 6b ee bf 13 6c 3e 12 0c fa 59 3f
       -0.9506120537004881 0.0015854947932669769
000420 5b a9 f1 7a 38 18 e4 bf 06 3f 56 94 e6 63 b6 3f
       -0.6279566193818867 0.08746186372286155
000430 24 f5 80 5a aa ad d7 bf ea 30 ce d0 44 e4 95 3f
       -0.3699746974778739 0.021378588909599573
000440 f5 c2 0f 93 d8 7e f0 bf 5c 47 41 77 99 a7 8c 3f
       -1.0309682602493784 0.013991545631288176
000450 4c 6a c0 82 99 37 e1 3f e0 48 29 19 be e6 74 3f
       0.5380370668165795 0.005102865764074788
000460 4d b9 be 94 94 f2 de bf e5 5e 6f 57 e2 b3 4a 3f
       -0.48355593229179733 0.0008149008925739358
000470 13 47 90 8f 63 20 f1 bf e1 ad e9 4b df f0 59 3f
       -1.0704074485733528 0.0015833073263377062
000480 80 1d eb 5e d6 70 e1 bf 1f 64 b6 55 ce e9 bb 3f
       -0.545024094951188 0.10903634636487468
000490 51 f7 77 96 d6 9c d0 bf 51 f5 a8 f6 f8 c4 96 3f
       -0.259572646085748 0.02223576550953982
0004a0 c3 7a ed fc 7d b4 ef bf 1b 5d 32 0c b8 0f 8b 3f
       -0.990782732009244 0.013213575241293676
0004b0 93 8e ac d1 12 93 e1 3f b7 7c 86 4f 9e 84 79 3f
       0.5492033095547008 0.006229990387878795
0004c0 9b ce 9d 0f d7 7a de bf 11 f6 b6 5d 55 b1 4a 3f
       -0.47624756360094417 0.0008145968271759415
0004d0 b8 bc cd a1 9d c7 f0 bf ed ee 3b 79 bc 83 5a 3f
       -1.0487343140082839 0.0016183224260534715
0004e0 b0 eb 21 48 6d a6 b1 3f 41 85 49 c6 70 ae b9 3f
       0.06894572268531252 0.10031800118442381
0004f0 6f 80 e2 c8 83 80 c8 bf c6 75 99 24 66 b2 96 3f
       -0.1914219599611928 0.02216491316209159
000500 3a 7a f4 73 be 41 ee bf 43 ca 11 cc 42 8e 8a 3f
       -0.9455253853555583 0.012966653683382684
000510 2e 4c d2 14 78 1b e5 3f 3c 68 39 1b d9 b0 76 3f
       0.6596031576795036 0.005539749213847197
000520 06 aa 8f bd d1 8b de bf a0 b5 b0 2f 4f 55 4a 3f
       -0.477283892744396 0.000803626694851612
000530 64 e0 44 dc 0e 37 ef bf ec 0b 8b 10 c6 2e 59 3f
       -0.9754709531907904 0.0015370306229420773
000540 00 c0 3a 57 b4 c5 c6 bf 6f 78 dd 35 25 81 b7 3f
       -0.17790846118214176 0.0918143517023695
000550 31 3d bc 58 84 40 c8 bf 33 95 91 88 7c 15 95 3f
       -0.18946890194681879 0.020589776835909745
000560 08 ad 1b c6 3d 71 ef bf 5a 00 7c 8c 18 ee 87 3f
       -0.9825734013842586 0.011684600627177289
000570 4c d6 f7 c6 b8 ca e4 3f e3 42 91 ff f9 73 73 3f
       0.6497463117691011 0.004749275737666567
000580 f7 47 19 55 b4 cd de bf 53 fb 92 86 07 0b 48 3f
       -0.4813052016298793 0.0007337366816030179
000590 c7 7c 76 23 3b a2 ef bf f6 7d 0f e0 3f e1 57 3f
       -0.9885535900720236 0.0014575122624974602
0005a0 11 4d 5a 27 dd a6 b3 bf 19 c4 a8 61 13 88 bf 3f
       -0.07676489077339378 0.12317010053881496
0005b0 bd 40 67 d0 25 a2 83 3f 6a 12 14 68 45 46 98 3f
       0.00958661596533294 0.02370556304687669
0005c0 d1 c0 9b 5e fe 7f ec bf 5f e4 a0 81 1a 70 89 3f
       -0.8906242225475812 0.01242085178465596
0005d0 18 4e b3 02 6f cb e6 3f 2d 7d 7a da db 6c 78 3f
       0.7123332073919668 0.00596319084402745
0005e0 27 6d 17 c8 41 09 de bf 7a 1b 5f 40 09 7e 4d 3f
       -0.4693149999636312 0.0009000344441510843
0005f0 ba 5e 3b 2b ba d0 ed bf 97 d0 18 18 70 be 5e 3f
       -0.931729397237141 0.0018764586133217848
000600 4c cd 76 72 f0 a4 c4 bf 89 85 78 7a f3 1b c1 3f
       -0.1612835463434784 0.13366549949664044
000610 a3 3b b2 c3 b3 c5 aa bf bb 3d 23 8e 8a be 97 3f
       -0.05228959812040237 0.023187794614214257
000620 24 28 8e 46 61 5d ec bf 26 d0 12 00 67 65 8a 3f
       -0.886398923686333 0.012888722123854345
000630 11 1b c0 63 03 98 e4 3f 65 36 da 41 de 26 7f 3f
       0.6435563038110975 0.007605426971748129
000640 9e b6 7b e4 9d 38 de bf a2 cd 77 90 4c a3 4a 3f
       -0.4722056132585325 0.0008129237984903402
000650 fe 64 e0 e4 83 31 ef bf c5 a0 7a 32 16 6d 5e 3f
       -0.9747943372960035 0.001857062985360301
000660 6a f8 55 8c 23 97 bd 3f 9e 6f 2c 59 da c2 bd 3f
       0.11558744598548434 0.11625446965302763
000670 c2 00 51 b5 11 6f b9 bf 50 d3 ac 4e 56 2d 97 3f
       -0.09935103108091695 0.022633884956309303
000680 7e 0c 01 c9 bb 55 ed bf 47 be 48 c6 22 cf 89 3f
       -0.91671551951039 0.012602111507560866
000690 f4 ed f6 95 5d 9d e6 3f fa 1f 8e 93 a2 a4 77 3f
       0.7067096642489887 0.00577224260712938
0006a0 3a 17 2d 73 69 49 de bf 58 eb 7f fa 1e 1c 4b 3f
       -0.47323070762319086 0.0008273268949773134
0006b0 a4 d1 e1 a6 75 3b ee bf 15 cc 19 74 ff 58 59 3f
       -0.9447582492271533 0.0015470976508396063
0006c0 b3 3e 18 10 3a dc a7 3f 0d cb 0b 6a 74 ec c2 3f
       0.04660207220524395 0.147841026096636
0006d0 a7 cb e1 8e 86 f2 c2 bf c8 8b 52 87 b8 38 9a 3f
       -0.14802629448567226 0.025606997737337683
0006e0 d8 df 87 17 a0 22 ed bf 0b 1a ae 6f e6 b0 8c 3f
       -0.9104767283997672 0.014009285243230548
0006f0 22 af 86 05 ae 68 e3 3f 06 1c 09 c3 e3 0f 80 3f
       0.606528292458709 0.007842807187570255
000700 bd 37 22 74 b7 f8 dd bf 1a 84 4b bb 21 08 4e 3f
       -0.4683054575078776 0.0009164967255764795
000710 1c f9 d6 3e b7 ce ef bf 59 1f ad 2b 68 43 60 3f
       -0.9939838626230855 0.001985267122481743
000720 0f 09 e4 f4 4f aa 71 bf cd fa c0 ca 2a 65 be 3f
       -0.004312813120352268 0.11873118829769709
000730 da 75 09 39 2d 68 c6 bf 18 9f 17 eb 75 21 98 3f
       -0.17505421910293145 0.023565142129796518
000740 a1 a1 b5 c1 ea eb ed bf 75 48 72 21 24 bc 8a 3f
       -0.9350484641445754 0.013054163237289121
000750 6c de c1 5c 0d cf e4 3f dc b5 19 52 d0 4a 78 3f
       0.6502749263444918 0.005930722954514658
000760 c6 3d 06 c3 e5 5a de bf b6 d9 3e 47 05 8a 4c 3f
       -0.47429794354772203 0.0008709455273592712
000770 7d cf 67 8c 87 54 ef bf 0d 1b 5e 08 3d a4 59 3f
       -0.9790685407919991 0.0015650363943408602
000780 3a 6c 32 4f 70 a2 ce bf 92 a1 c2 64 13 8d b8 3f
       -0.23933223597563985 0.09590264520614358
000790 28 a7 05 4a de 7a d0 bf b4 80 15 c7 2b be 95 3f
       -0.2574992869254964 0.021233257318613766
0007a0 77 44 8c ab f3 ad f0 bf 0c e0 6f ab 03 20 89 3f
       -1.0424687100496877 0.012268093747465535
0007b0 39 18 1b 68 38 93 e3 3f c4 b6 02 aa 04 14 75 3f
       0.6117212327305942 0.005146043986469177
0007c0 40 2d 6d 89 da 74 de bf 21 9c ff 21 a0 fa 48 3f
       -0.4758821813636196 0.0007622987650365323
0007d0 ee 10 23 5e a5 28 f0 bf 0b 74 0d 67 a3 f4 56 3f
       -1.0099233319497745 0.0014010997512834435
0007e0 9a de 84 39 4d 6b c8 bf 93 34 cd 16 3d 9d bd 3f
       -0.19077458675905207 0.11568052107505115
0007f0 bf d9 1a 56 be 8d d4 bf 6c e1 d5 2e 0d 60 97 3f
       -0.3211513367527025 0.02282734487877873
